models/flood_depth_model.tflite (tflite, 94208 bytes, 9 tensors)

arith.constant f2 [256]
0	0x2a4b	0.04916
1	0xa2e6	-0.01347
2	0xa8c0	-0.0371
3	0xa851	-0.03372
4	0xa950	-0.0415
5	0xaafb	-0.05453
6	0x2b0e	0.0551
7	0x9ca0	-0.004517
8	0xa456	-0.01694
9	0xa775	-0.02913
10	0x119b	0.0006843
11	0xa36a	-0.01448
12	0x1952	0.002598
13	0xa96b	-0.04233
14	0x2084	0.00882
15	0x179e	0.00186
16	0x2487	0.01768
17	0x22aa	0.013016
18	0x24b9	0.01845
19	0x9faf	-0.007504
20	0x24fb	0.01945
21	0xa181	-0.01075
22	0x00ee	1.42e-05
23	0x21d1	0.01136
24	0x251f	0.02
25	0xa1dc	-0.011444
26	0x9595	-0.001363
27	0x2bc1	0.06058
28	0x24ee	0.01926
29	0x9de0	-0.005737
30	0x28ad	0.03653
31	0xabc7	-0.06076
32	0x1c1f	0.004025
33	0x2145	0.01029
34	0xa5df	-0.02293
35	0x2067	0.0086
36	0x2399	0.01484
37	0xa729	-0.02797
38	0x22d1	0.01331
39	0x28cb	0.03745
40	0x2185	0.01078
41	0xa6ab	-0.02605
42	0x2132	0.01015
43	0xa20e	-0.011826
44	0x26dc	0.0268
45	0xa92a	-0.04034
46	0x291a	0.03986
47	0x2975	0.04263
48	0xa573	-0.02129
49	0x1405	0.000981
50	0x1dd1	0.00568
51	0x16d2	0.001665
52	0x220c	0.01181
53	0xa401	-0.01564
54	0x2d4d	0.0828
55	0x2266	0.0125
56	0x27cf	0.0305
57	0xa142	-0.01027
58	0x24c5	0.01863
59	0xa0f7	-0.0097
60	0xa27c	-0.012665
61	0x24d4	0.01886
62	0x9fbf	-0.007565
63	0xa024	-0.00809
64	0xa3f5	-0.01554
65	0x2a34	0.04846
66	0x1f0b	0.006878
67	0xa624	-0.02399
68	0xa90c	-0.03943
69	0x2483	0.01762
70	0xa8c7	-0.03732
71	0xabbb	-0.0604
72	0xad99	-0.08746
73	0xacd4	-0.07544
74	0x22df	0.01342
75	0x1fab	0.00749
76	0x2884	0.03528
77	0x9e06	-0.005882
78	0x242f	0.01634
79	0x9a45	-0.003061
80	0x28ef	0.03854
81	0x9fab	-0.00749
82	0xa51b	-0.01994
83	0x2f3e	0.11316
84	0xa0c7	-0.00933
85	0x2806	0.03143
86	0x2995	0.0436
87	0x24a6	0.01816
88	0xa8bf	-0.03708
89	0x1ba7	0.003736
90	0xa897	-0.03586
91	0x186c	0.00216
92	0x1187	0.0006747
93	0x287d	0.03506
94	0xab3f	-0.0566
95	0x9d66	-0.005272
96	0xa454	-0.0169
97	0x20a3	0.009056
98	0x2b24	0.0558
99	0x2391	0.01478
100	0x23a1	0.0149
101	0x94d8	-0.001183
102	0x2181	0.01075
103	0xabce	-0.06097
104	0xaa6b	-0.05014
105	0x281b	0.03207
106	0x2d83	0.0861
107	0xa361	-0.01441
108	0x20cc	0.00937
109	0x200d	0.00791
110	0x2263	0.012474
111	0xaa4e	-0.04926
112	0x9f39	-0.007053
113	0xaab9	-0.05252
114	0x2c4d	0.0672
115	0x1c93	0.004467
116	0xa38c	-0.01474
117	0x2dd9	0.0914
118	0x23e7	0.015434
119	0x243a	0.01651
120	0x235f	0.0144
121	0x28f2	0.03864
122	0xac11	-0.06354
123	0xa876	-0.03485
124	0xa0d5	-0.00944
125	0xa37c	-0.01462
126	0x9599	-0.001367
127	0x252a	0.02017
128	0x17ee	0.001936
129	0xa4f0	-0.01929
130	0xac7e	-0.0702
131	0xa5c0	-0.02246
132	0x9fcd	-0.007618
133	0x2438	0.01648
134	0xa8fd	-0.03897
135	0x94d3	-0.001178
136	0x2a23	0.04794
137	0x2085	0.00883
138	0x249c	0.018
139	0x206d	0.008644
140	0xa6f5	-0.02718
141	0xa8eb	-0.03842
142	0x19b6	0.002789
143	0x2550	0.02075
144	0xa34e	-0.01427
145	0xa7e5	-0.03084
146	0x26f3	0.02715
147	0x244e	0.01682
148	0xa858	-0.03394
149	0x9ffc	-0.007797
150	0x259e	0.02194
151	0xa10e	-0.00987
152	0x2dbc	0.0896
153	0xa8b9	-0.0369
154	0x181a	0.002003
155	0xaba9	-0.05984
156	0x2698	0.02576
157	0x2819	0.032
158	0x2958	0.04175
159	0x9f7b	-0.007305
160	0xa565	-0.02107
161	0x9c83	-0.004406
162	0x2935	0.04068
163	0xa5f6	-0.02328
164	0x86de	-0.0001048
165	0x232f	0.01403
166	0x2453	0.01689
167	0xa4b0	-0.01831
168	0x20ba	0.00923
169	0xa63f	-0.0244
170	0x26ad	0.02608
171	0x1a58	0.003098
172	0x206a	0.00862
173	0xa1d6	-0.0114
174	0x9c71	-0.004337
175	0x9f1e	-0.00695
176	0x1b64	0.003609
177	0x2301	0.01368
178	0x9d30	-0.005066
179	0xa9ca	-0.04523
180	0x29be	0.04486
181	0xa250	-0.01233
182	0x282a	0.03253
183	0xa63a	-0.02432
184	0xa376	-0.01457
185	0x2735	0.02815
186	0xa633	-0.02422
187	0x9911	-0.002474
188	0x9d99	-0.005466
189	0x1ea6	0.006493
190	0x245a	0.017
191	0x2604	0.0235
192	0x1f95	0.007404
193	0x9f6f	-0.00726
194	0x2cf9	0.0777
195	0x234c	0.01425
196	0x2231	0.01209
197	0x1841	0.002077
198	0x99b8	-0.002792
199	0x208d	0.00889
200	0x928e	-0.0008
201	0x2629	0.02406
202	0xa4c8	-0.01868
203	0x2619	0.02382
204	0x9a8f	-0.003202
205	0x216d	0.0106
206	0xa1ef	-0.01159
207	0x27ce	0.03049
208	0xa8ba	-0.03693
209	0xa487	-0.01768
210	0x2553	0.0208
211	0x271a	0.02774
212	0x20fa	0.00972
213	0x2389	0.01472
214	0x2410	0.01587
215	0x252e	0.02023
216	0x26ca	0.02652
217	0xa02b	-0.00814
218	0xa93a	-0.04083
219	0xa921	-0.04007
220	0xa971	-0.0425
221	0x2b8f	0.05905
222	0xa48c	-0.01776
223	0x2c08	0.063
224	0xa537	-0.02037
225	0x2aa3	0.05185
226	0x1d83	0.005383
227	0x23e0	0.01538
228	0x2531	0.02028
229	0x19b9	0.002794
230	0xa9bb	-0.04477
231	0x2781	0.02931
232	0x2923	0.04013
233	0x2339	0.01411
234	0x26b1	0.02614
235	0x1a1f	0.002989
236	0x291f	0.04
237	0x2ac6	0.05292
238	0x20f4	0.009674
239	0xa726	-0.02792
240	0xa77c	-0.02924
241	0x2135	0.01017
242	0x28b1	0.03665
243	0x2720	0.02783
244	0xa8a7	-0.03635
245	0x9de5	-0.005756
246	0xa9e1	-0.04593
247	0xa243	-0.01223
248	0x21a5	0.011024
249	0xa43c	-0.01654
250	0x1a7a	0.003162
251	0x2920	0.04004
252	0x19f1	0.002901
253	0x125f	0.0007777
254	0x24b8	0.01843
255	0xa913	-0.03964

arith.constant1 f2 [256, 6]
0	0xaa60	-0.0498
1	0xac0f	-0.0634
2	0x225c	0.01242
3	0xaf78	-0.1167
4	0x2d11	0.07916
5	0x2fed	0.12384
6	0x2e42	0.0978
7	0x9857	-0.00212
8	0x2d38	0.08154
9	0x247e	0.01755
10	0xb032	-0.1311
11	0x2ce2	0.0763
12	0x224a	0.01228
13	0x2e49	0.0982
14	0x31ba	0.179
15	0x29da	0.04572
16	0xa7fd	-0.0312
17	0x2ece	0.1063
18	0xaab1	-0.05228
19	0x30ab	0.1459
20	0xa3e4	-0.01541
21	0xb108	-0.1572
22	0xa8c9	-0.03738
23	0xa343	-0.01418
24	0x314a	0.1653
25	0xae17	-0.09515
26	0x3197	0.1747
27	0x2ce5	0.0765
28	0x2d1b	0.0798
29	0x2a70	0.0503
30	0xada9	-0.08844
31	0xadcd	-0.09064
32	0x2d07	0.07855
33	0xb0ea	-0.1536
34	0xb09d	-0.1442
35	0x9edf	-0.00671
36	0x2de9	0.09235
37	0x2c8a	0.0709
38	0x2afd	0.0546
39	0x95bb	-0.001399
40	0x3070	0.1387
41	0xb286	-0.2039
42	0xa2de	-0.01341
43	0x30db	0.1517
44	0x2bfb	0.06235
45	0x1ba6	0.003735
46	0x2c93	0.0715
47	0xa99a	-0.04376
48	0x159c	0.001369
49	0x9eb2	-0.00654
50	0x270a	0.0275
51	0x2fa1	0.1192
52	0xa860	-0.03418
53	0xae70	-0.1006
54	0x316d	0.1696
55	0x2042	0.008316
56	0x1b7b	0.003653
57	0xad25	-0.0804
58	0x2b66	0.0578
59	0xae47	-0.0981
60	0x2b3b	0.0565
61	0xaf0d	-0.11017
62	0x2de5	0.0921
63	0x24b2	0.01834
64	0x247f	0.01756
65	0x2435	0.01643
66	0x2eba	0.1051
67	0xaf5c	-0.115
68	0x3115	0.1588
69	0x3093	0.143
70	0x2ea0	0.1035
71	0x2967	0.0422
72	0xad9e	-0.08777
73	0x282f	0.03268
74	0xae21	-0.09576
75	0x24f7	0.0194
76	0x2967	0.0422
77	0x280f	0.0317
78	0x2f12	0.1105
79	0xa676	-0.02524
80	0xaf55	-0.11456
81	0x101c	0.0005016
82	0x2e81	0.1016
83	0x3108	0.1572
84	0x308f	0.1425
85	0xb130	-0.1621
86	0x9de6	-0.00576
87	0x9657	-0.001548
88	0xae39	-0.0972
89	0xb1ad	-0.1774
90	0xb0a6	-0.1453
91	0xa826	-0.0324
92	0xae8a	-0.1022
93	0x300d	0.1266
94	0xaa2d	-0.04825
95	0xaa5c	-0.04968
96	0xaa07	-0.0471
97	0xae59	-0.0992
98	0x2683	0.02544
99	0xb023	-0.1293
100	0x1ff4	0.007767
101	0x2e54	0.0989
102	0xafa9	-0.1197
103	0xa515	-0.01985
104	0x303f	0.1327
105	0x27c6	0.03036
106	0x8735	-0.00011
107	0x2f91	0.1182
108	0x2ff3	0.1242
109	0x2db9	0.0894
110	0x2369	0.01447
111	0x2c19	0.064
112	0xb018	-0.1279
113	0x2ff8	0.1245
114	0x2fe3	0.1232
115	0xa804	-0.03137
116	0xadff	-0.0937
117	0x2790	0.02954
118	0xae6c	-0.10034
119	0xac8b	-0.071
120	0x2541	0.02052
121	0xafb0	-0.1201
122	0x2869	0.03445
123	0xb0c7	-0.1493
124	0xab67	-0.05783
125	0xb0c4	-0.1489
126	0x30de	0.1521
127	0x2d71	0.085
128	0x2198	0.010925
129	0x278a	0.02945
130	0x2818	0.03198
131	0xa706	-0.02744
132	0xae0d	-0.09454
133	0xa2a3	-0.01296
134	0x2831	0.03275
135	0xac9e	-0.07214
136	0x2efc	0.10913
137	0x2c76	0.0697
138	0x2d45	0.08234
139	0xb0cf	-0.1503
140	0x23a0	0.01489
141	0xae37	-0.0971
142	0x20a1	0.00904
143	0xa9f5	-0.04654
144	0xa305	-0.01371
145	0x2feb	0.1237
146	0x2e15	0.09503
147	0xae64	-0.09985
148	0x2b06	0.05487
149	0xaff8	-0.1245
150	0xb00a	-0.1262
151	0xa919	-0.03983
152	0xabe1	-0.06155
153	0x2ee6	0.1078
154	0xaf78	-0.1167
155	0x2620	0.02393
156	0x2591	0.02174
157	0xa3b2	-0.01503
158	0x1cbc	0.004623
159	0x2582	0.02151
160	0x2896	0.03583
161	0x2dd0	0.0908
162	0xadec	-0.0925
163	0xaf88	-0.1177
164	0xa829	-0.0325
165	0x3109	0.1573
166	0xa8b8	-0.03687
167	0x28f2	0.03864
168	0xa486	-0.01767
169	0x2ec6	0.10583
170	0xb07d	-0.1403
171	0x2c23	0.06464
172	0x2e82	0.1017
173	0x25cc	0.02264
174	0xad65	-0.0843
175	0xac96	-0.07166
176	0xa972	-0.04254
177	0x9d16	-0.004967
178	0x20da	0.009476
179	0x2bd3	0.06113
180	0x2add	0.05362
181	0x2e24	0.09595
182	0xae53	-0.0988
183	0x98f4	-0.002419
184	0x2c43	0.0666
185	0xb0fc	-0.1558
186	0x3250	0.1973
187	0x2de9	0.09235
188	0xaced	-0.07697
189	0xb083	-0.141
190	0xa8c6	-0.0373
191	0xaec0	-0.10547
192	0x30ac	0.146
193	0x2f39	0.11285
194	0xb04e	-0.1345
195	0x2a6e	0.05023
196	0xaf36	-0.1127
197	0xab5d	-0.05753
198	0x3073	0.139
199	0xaec6	-0.10583
200	0x293d	0.04092
201	0x28e2	0.03815
202	0x2fc2	0.1212
203	0x2b33	0.05624
204	0x2893	0.03574
205	0xa8e5	-0.03824
206	0xa75f	-0.0288
207	0x2ed7	0.1069
208	0x3000	0.125
209	0xac2c	-0.0652
210	0x2b3d	0.05655
211	0xab23	-0.05576
212	0x2664	0.02496
213	0x2f1b	0.111
214	0xad66	-0.08435
215	0x30b9	0.1476
216	0xb09f	-0.1444
217	0x2826	0.0324
218	0x2c83	0.0705
219	0xacbf	-0.07416
220	0xaf8d	-0.118
221	0x2da3	0.0881
222	0xac5b	-0.06805
223	0x2d74	0.0852
224	0xacc8	-0.0747
225	0xabad	-0.05997
226	0xb0e7	-0.1532
227	0xadbb	-0.08954
228	0x302e	0.1306
229	0x2ee9	0.108
230	0x2eee	0.1083
231	0xad4e	-0.0829
232	0x2f6f	0.11615
233	0xa9aa	-0.04425
234	0x2dbd	0.08966
235	0x2c23	0.06464
236	0xb050	-0.1348
237	0xb0b7	-0.1473
238	0xac45	-0.0667
239	0x30b1	0.1466
240	0xaad2	-0.05328
241	0x21c6	0.01128
242	0x2429	0.01625
243	0x310d	0.1578
244	0x303a	0.1321
245	0x2ddd	0.0916
246	0xa2b2	-0.01308
247	0x2cb6	0.0736
248	0xac3d	-0.0662
249	0x2e9a	0.10315
250	0x10c2	0.000581
251	0xb145	-0.1647
252	0xac0a	-0.0631
253	0xb0a6	-0.1453
254	0xa7ca	-0.03043
255	0x3024	0.1294

arith.constant2 f2 [32, 64]
0	0xaee5	-0.1077
1	0xb353	-0.2289
2	0xa46f	-0.01732
3	0x2519	0.01991
4	0x318e	0.1736
5	0x2de9	0.09235
6	0xb336	-0.2253
7	0x3322	0.2229
8	0xb1d7	-0.1825
9	0xb0aa	-0.1458
10	0xb378	-0.2334
11	0xb152	-0.1663
12	0xa894	-0.03577
13	0xb119	-0.1593
14	0x2eff	0.1093
15	0xb2d5	-0.2135
16	0xb371	-0.2325
17	0xb2f2	-0.217
18	0x3326	0.2234
19	0x2609	0.02357
20	0x32a8	0.208
21	0xacec	-0.0769
22	0x2fda	0.1227
23	0xac27	-0.0649
24	0xb45d	-0.2727
25	0xaa0e	-0.0473
26	0xad8c	-0.0867
27	0x31c3	0.18
28	0x331d	0.2223
29	0xb401	-0.2502
30	0xacd7	-0.0756
31	0xb368	-0.2314
32	0x30c6	0.1492
33	0x3228	0.1924
34	0xb218	-0.1904
35	0xaf95	-0.11847
36	0xb364	-0.231
37	0x3271	0.2013
38	0x2d91	0.087
39	0x3039	0.132
40	0xa8fa	-0.03888
41	0x2edc	0.1072
42	0x30c3	0.1488
43	0x2e67	0.10004
44	0x3238	0.1943
45	0x3174	0.1704
46	0x2908	0.0393
47	0xae73	-0.10077
48	0x307e	0.1404
49	0x2d4c	0.08276
50	0xaf72	-0.11633
51	0xb30f	-0.2206
52	0xb25d	-0.1989
53	0x30cd	0.15
54	0x3017	0.1278
55	0xb2f8	-0.2178
56	0x3008	0.126
57	0xb046	-0.1335
58	0xa89f	-0.0361
59	0xb33c	-0.2261
60	0x2d62	0.0841
61	0xb1b6	-0.1785
62	0xacd8	-0.0757
63	0xb369	-0.2316
64	0xae42	-0.0978
65	0xb278	-0.2021
66	0x2f49	0.11383
67	0xa702	-0.02737
68	0x2f93	0.11835
69	0xaf8d	-0.118
70	0xad35	-0.08136
71	0x2b6d	0.058
72	0xb388	-0.2354
73	0xb09c	-0.144
74	0x299e	0.04388
75	0x31dd	0.1832
76	0x9cf5	-0.00484
77	0xa68f	-0.02562
78	0xb1a6	-0.1765
79	0x3289	0.2042
80	0xb1f7	-0.1864
81	0x25f9	0.02333
82	0x3242	0.1956
83	0xa5f3	-0.02324
84	0x29f4	0.0465
85	0x3081	0.1407
86	0x310a	0.1575
87	0xb054	-0.1353
88	0xb1c1	-0.1798
89	0x2ed8	0.10693
90	0xb264	-0.1997
91	0x3252	0.1975
92	0x320e	0.1892
93	0x3272	0.2014
94	0xada9	-0.08844
95	0xb1e4	-0.1841
96	0x30cb	0.1498
97	0xac75	-0.06964
98	0x309d	0.1442
99	0xb05f	-0.1366
100	0x33f9	0.2491
101	0xb354	-0.229
102	0xaf9e	-0.119
103	0xa943	-0.0411
104	0xb0d4	-0.1509
105	0xaf0c	-0.1101
106	0x2fb9	0.12067
107	0xa370	-0.01453
108	0xb039	-0.132
109	0x2659	0.0248
110	0xb055	-0.1354
111	0x3150	0.166
112	0xab04	-0.0548
113	0x3245	0.1959
114	0x280e	0.03168
115	0x2f8c	0.1179
116	0xac3c	-0.06616
117	0xa7bb	-0.0302
118	0xac47	-0.06683
119	0x3035	0.1315
120	0xb0cd	-0.15
121	0xa108	-0.00983
122	0x3268	0.2002
123	0x3108	0.1572
124	0xb403	-0.2507
125	0xb073	-0.139
126	0xa36f	-0.01452
127	0x229c	0.01291
128	0x336a	0.2317
129	0xb359	-0.2296
130	0xaa9a	-0.05157
131	0xabae	-0.06
132	0x304a	0.134
133	0x2aea	0.05402
134	0xb10f	-0.1581
135	0xaedb	-0.1071
136	0xa166	-0.010544
137	0xa9c4	-0.04504
138	0x2974	0.0426
139	0x28fe	0.039
140	0x2898	0.0359
141	0x2c0f	0.0634
142	0xb207	-0.1884
143	0x27f6	0.0311
144	0xa3e7	-0.015434
145	0x9079	-0.000546
146	0x3271	0.2013
147	0xaa0a	-0.04718
148	0x32ed	0.2164
149	0xb2cd	-0.2125
150	0xac57	-0.0678
151	0x2e77	0.101
152	0xb1a8	-0.1768
153	0x3041	0.1329
154	0xaf24	-0.1116
155	0x2052	0.00844
156	0xb3bd	-0.2418
157	0xb40a	-0.2524
158	0x3368	0.2314
159	0xb0eb	-0.1537
160	0xad88	-0.0864
161	0xa065	-0.00858
162	0x2a23	0.04794
163	0xb41e	-0.2573
164	0xade3	-0.092
165	0xb0b5	-0.1471
166	0xa8ea	-0.0384
167	0x2bab	0.0599
168	0x31ac	0.1772
169	0x3338	0.2256
170	0xb3da	-0.2454
171	0xb3ea	-0.2473
172	0xaf4f	-0.1142
173	0xa405	-0.0157
174	0xa704	-0.0274
175	0xb13d	-0.1637
176	0xb2b0	-0.209
177	0xad5c	-0.08374
178	0x2cc7	0.07465
179	0xb1d0	-0.1816
180	0x2805	0.0314
181	0x269b	0.0258
182	0xb174	-0.1704
183	0xa92c	-0.0404
184	0xab38	-0.0564
185	0xb0ff	-0.1561
186	0xb323	-0.223
187	0xb2cc	-0.2124
188	0x2c41	0.06647
189	0x2c14	0.0637
190	0x3110	0.1582
191	0x2d71	0.085
192	0xb23e	-0.1951
193	0xb0a0	-0.1445
194	0xb24d	-0.1969
195	0x32ae	0.2087
196	0x9ac0	-0.003296
197	0x30f1	0.1544
198	0x294f	0.04147
199	0x3154	0.1665
200	0x30d7	0.1512
201	0x303f	0.1327
202	0x27ab	0.02995
203	0x2f53	0.11444
204	0x30e9	0.1534
205	0xaca0	-0.07227
206	0x2956	0.0417
207	0x2d15	0.0794
208	0x28c1	0.03714
209	0x2020	0.00806
210	0xabbc	-0.06042
211	0xaec4	-0.1057
212	0xb0c8	-0.1494
213	0x30ae	0.1462
214	0x2f58	0.11475
215	0xaa38	-0.04858
216	0x3234	0.1938
217	0x2fc8	0.1216
218	0xb26b	-0.2006
219	0x29a1	0.04398
220	0xb1a0	-0.1758
221	0x313d	0.1637
222	0x3262	0.1995
223	0xa70e	-0.02756
224	0x3242	0.1956
225	0x98be	-0.002316
226	0x2ac6	0.05292
227	0xaef3	-0.1086
228	0x2fe6	0.1234
229	0x300a	0.1262
230	0x308f	0.1425
231	0x278e	0.02951
232	0x2e02	0.0939
233	0xb2ec	-0.2163
234	0x33a2	0.2385
235	0x1f9e	0.00744
236	0x3181	0.172
237	0xb0e1	-0.1525
238	0x2e64	0.09985
239	0x3413	0.2546
240	0xaef1	-0.10846
241	0x3253	0.1976
242	0x3301	0.2189
243	0xb0c3	-0.1488
244	0xb05c	-0.1362
245	0x22d0	0.013306
246	0x30cd	0.15
247	0x2b5e	0.05756
248	0x30d5	0.151
249	0x289f	0.0361
250	0xa902	-0.03912
251	0xb20f	-0.1893
252	0x314a	0.1653
253	0x23ef	0.015495
254	0xa7f2	-0.03104
255	0xaa29	-0.04813

arith.constant3 f2 [1, 32]
0	0x2651	0.02467
1	0xb4f0	-0.3086
2	0xb481	-0.2815
3	0x3014	0.1274
4	0xa8e4	-0.0382
5	0x2d2b	0.08075
6	0xb0b0	-0.1465
7	0x351e	0.3198
8	0x239c	0.01486
9	0x34ea	0.3071
10	0x3513	0.3171
11	0x2cb9	0.0738
12	0x307c	0.1401
13	0xb01a	-0.1282
14	0xb50d	-0.3157
15	0x993c	-0.002556
16	0x2a63	0.0499
17	0x30cd	0.15
18	0x2a3b	0.04868
19	0xa8fc	-0.03894
20	0x18cd	0.002344
21	0x315a	0.1672
22	0x3125	0.1608
23	0xacf3	-0.07733
24	0xb635	-0.388
25	0x314e	0.1658
26	0xae22	-0.0958
27	0x299a	0.04376
28	0xb270	-0.2012
29	0x3484	0.2822
30	0xaee9	-0.108
31	0x3592	0.3481

arith.constant5 f2 [128]
0	0xc126	-2.574
1	0xc322	-3.566
2	0xc14f	-2.654
3	0x39f9	0.7466
4	0xb27f	-0.203
5	0xb77d	-0.468
6	0xbc9f	-1.155
7	0xbc09	-1.009
8	0xc345	-3.635
9	0xbc2d	-1.044
10	0x3861	0.5474
11	0x3a24	0.7676
12	0xc082	-2.254
13	0xc2dc	-3.43
14	0xbc52	-1.08
15	0x35ab	0.3542
16	0xc154	-2.664
17	0x3c53	1.081
18	0xbf3c	-1.809
19	0xbe10	-1.516
20	0xb917	-0.636
21	0x341d	0.257
22	0xa5dd	-0.0229
23	0xba25	-0.768
24	0xbe59	-1.587
25	0xb80e	-0.507
26	0x383e	0.5303
27	0x3d2f	1.296
28	0xbc27	-1.038
29	0xbf2b	-1.792
30	0xbaff	-0.8745
31	0x4334	3.602
32	0xc093	-2.287
33	0xbf23	-1.784
34	0xc2c9	-3.393
35	0xc111	-2.533
36	0xc0f3	-2.475
37	0xbfbd	-1.935
38	0xbd2e	-1.295
39	0x3850	0.539
40	0xc107	-2.514
41	0xb896	-0.573
42	0x3e72	1.611
43	0xbd97	-1.397
44	0x414e	2.652
45	0xc328	-3.578
46	0xc2e5	-3.447
47	0xbc85	-1.13
48	0xb823	-0.517
49	0xbfce	-1.951
50	0xbd1f	-1.28
51	0x3de6	1.475
52	0xbe1a	-1.525
53	0xb769	-0.4631
54	0x3d53	1.331
55	0x401f	2.06
56	0xaca6	-0.07263
57	0x3af6	0.87
58	0x3f05	1.755
59	0xbc39	-1.056
60	0x407c	2.242
61	0xba60	-0.797
62	0xb9a6	-0.706
63	0xbaf9	-0.8716
64	0x44d2	4.82
65	0xbef2	-1.736
66	0x4100	2.5
67	0xbe34	-1.551
68	0xbeea	-1.729
69	0x3d1a	1.275
70	0x4400	4.0
71	0xb089	-0.1417
72	0xb94c	-0.662
73	0xbba1	-0.9536
74	0xbe9a	-1.65
75	0xb521	-0.3206
76	0xba18	-0.7617
77	0xbd50	-1.328
78	0x4406	4.023
79	0xbc56	-1.084
80	0x3902	0.626
81	0xbd25	-1.286
82	0xc0f5	-2.479
83	0x3ec5	1.692
84	0x40b1	2.346
85	0x8d73	-0.0003326
86	0x427d	3.244
87	0x4361	3.69
88	0xb996	-0.698
89	0x40cc	2.398
90	0xb95b	-0.6694
91	0x3dac	1.418
92	0x3c75	1.114
93	0xbe5f	-1.593
94	0xb41d	-0.257
95	0x36bb	0.4207
96	0x3868	0.551
97	0x41b4	2.852
98	0xb149	-0.1652
99	0x40d9	2.424
100	0x3278	0.2021
101	0xbb93	-0.947
102	0x4269	3.205
103	0x3c03	1.003
104	0x30ae	0.1462
105	0xc310	-3.531
106	0x411d	2.557
107	0x3664	0.3994
108	0x4094	2.29
109	0xb9eb	-0.7397
110	0x4211	3.033
111	0x2c9c	0.072
112	0xbe0a	-1.51
113	0x3411	0.2542
114	0x411c	2.555
115	0xbcd4	-1.207
116	0x370f	0.4412
117	0x3ee3	1.722
118	0x441f	4.12
119	0xbd8f	-1.39
120	0xbd02	-1.252
121	0x4421	4.13
122	0xbd0f	-1.265
123	0x3464	0.2744
124	0xbeef	-1.733
125	0x40c6	2.387
126	0xc021	-2.064
127	0x44bf	4.746

arith.constant6 f2 [128, 256]
0	0x248b	0.01775
1	0x2b04	0.0548
2	0x2238	0.012146
3	0x1b44	0.003548
4	0x9c3c	-0.004135
5	0x2119	0.00996
6	0xa64a	-0.02457
7	0x3185	0.1725
8	0xa242	-0.01222
9	0x25a0	0.02197
10	0xabca	-0.06085
11	0x1207	0.0007358
12	0x28c4	0.03723
13	0xa7b9	-0.03017
14	0x24a4	0.01813
15	0x21d9	0.01142
16	0x9f57	-0.007168
17	0xa7dd	-0.03072
18	0x1df9	0.005833
19	0xa41e	-0.01608
20	0x2303	0.013695
21	0xa8aa	-0.03644
22	0x1fe1	0.007694
23	0xa02f	-0.00817
24	0x2298	0.01288
25	0x2077	0.00872
26	0xa580	-0.02148
27	0x9aed	-0.003382
28	0xa60f	-0.02367
29	0x2f3d	0.1131
30	0x2d43	0.0822
31	0x22f8	0.01361
32	0xa229	-0.01203
33	0xa7c2	-0.0303
34	0xa38c	-0.01474
35	0x1a33	0.003027
36	0x211f	0.01
37	0x9cfc	-0.004868
38	0x119c	0.0006847
39	0x2314	0.013824
40	0x18bc	0.002312
41	0xa1d6	-0.0114
42	0x1d3c	0.00511
43	0xa13c	-0.01022
44	0xa47d	-0.01753
45	0x20e3	0.009544
46	0x1dcd	0.005665
47	0x2b6c	0.05798
48	0x2119	0.00996
49	0x1e42	0.00611
50	0xa10d	-0.009865
51	0x1d0f	0.00494
52	0xa0a6	-0.00908
53	0x9931	-0.002535
54	0x2406	0.01572
55	0x9b30	-0.00351
56	0x1050	0.0005264
57	0xa180	-0.01074
58	0xa14b	-0.01034
59	0xa02b	-0.00814
60	0x9db8	-0.005585
61	0xa6d6	-0.0267
62	0xa4bb	-0.01848
63	0xab19	-0.05545
64	0x217e	0.01073
65	0x20c3	0.0093
66	0xa183	-0.010765
67	0x2406	0.01572
68	0xa167	-0.01055
69	0xa972	-0.04254
70	0x2d53	0.0832
71	0x8ff2	-0.000485
72	0x2139	0.0102
73	0x16e7	0.001685
74	0x1d43	0.00514
75	0xa150	-0.010376
76	0x1bc9	0.003801
77	0x2590	0.02173
78	0x23ba	0.01509
79	0x2857	0.0339
80	0xa1e8	-0.011536
81	0x1ec7	0.00662
82	0x2171	0.01063
83	0xa988	-0.0432
84	0xa2e0	-0.01343
85	0x249d	0.01802
86	0x2196	0.01091
87	0x2877	0.03488
88	0x2d85	0.08624
89	0xa4fe	-0.0195
90	0xa7df	-0.03075
91	0xa1e3	-0.0115
92	0xa357	-0.014336
93	0x20cf	0.00939
94	0x9dce	-0.00567
95	0x2493	0.01787
96	0x2153	0.0104
97	0x24dc	0.01898
98	0x25a7	0.02208
99	0x1a67	0.003126
100	0x8d4e	-0.0003238
101	0xa28e	-0.0128
102	0x2747	0.02843
103	0x2528	0.02014
104	0x1eb6	0.006554
105	0xa7ec	-0.03094
106	0x259a	0.02188
107	0xa266	-0.0125
108	0x25c3	0.0225
109	0x2130	0.01013
110	0x226b	0.012535
111	0x1eeb	0.006756
112	0x9e46	-0.006126
113	0x1d75	0.00533
114	0x28f8	0.03882
115	0xa4bf	-0.01854
116	0x2186	0.01079
117	0xa42f	-0.01634
118	0x1ff6	0.007774
119	0xa699	-0.02577
120	0xa9f4	-0.0465
121	0x2274	0.0126
122	0x1fba	0.007545
123	0x1e43	0.006115
124	0x19b2	0.00278
125	0xa773	-0.0291
126	0xa489	-0.01772
127	0x9fb1	-0.00751
128	0x9fc3	-0.00758
129	0x1ccc	0.004684
130	0x27e2	0.03079
131	0xa206	-0.011765
132	0x2840	0.0332
133	0x9d0e	-0.004936
134	0x1f6b	0.007244
135	0x1e34	0.006058
136	0x1c70	0.004333
137	0xa3ff	-0.01562
138	0x0fe4	0.0004816
139	0x25e9	0.02309
140	0xa5d4	-0.02277
141	0x1f8a	0.007362
142	0xa07d	-0.008766
143	0x9262	-0.000779
144	0x27e1	0.03078
145	0xa277	-0.01263
146	0xa97d	-0.04288
147	0x1b92	0.003696
148	0x14aa	0.001139
149	0xa45f	-0.01707
150	0x9cb0	-0.004578
151	0x2597	0.02184
152	0x1ab9	0.003283
153	0x27e3	0.0308
154	0x1fa3	0.007458
155	0x268a	0.02554
156	0xa192	-0.01088
157	0x28ec	0.03845
158	0x9fe4	-0.007706
159	0x9c5e	-0.004265
160	0xaad5	-0.05338
161	0x1c78	0.004364
162	0xa48e	-0.01779
163	0xa526	-0.02011
164	0x23fd	0.0156
165	0xb166	-0.1687
166	0xa62b	-0.0241
167	0x2580	0.02148
168	0x2653	0.0247
169	0x1a16	0.002972
170	0xa568	-0.02112
171	0x2bec	0.0619
172	0x2019	0.008
173	0x2a7c	0.05066
174	0x24fe	0.0195
175	0x1b85	0.003672
176	0x241a	0.01602
177	0x2c09	0.06305
178	0x9bde	-0.003841
179	0x2096	0.00896
180	0x9fc5	-0.007587
181	0x256c	0.02118
182	0x2246	0.01225
183	0xa045	-0.00834
184	0x2086	0.008835
185	0x8045	-4.1e-06
186	0x235c	0.01437
187	0x9ce0	-0.00476
188	0xa020	-0.00806
189	0xa068	-0.008606
190	0x1c3b	0.00413
191	0x2200	0.01172
192	0xa89b	-0.03598
193	0x3033	0.1312
194	0x212f	0.010124
195	0x92a1	-0.000809
196	0x2037	0.00823
197	0x20ab	0.00912
198	0x24db	0.01897
199	0x2008	0.00787
200	0xa2e5	-0.013466
201	0x1f81	0.007328
202	0x1c25	0.004047
203	0x1d32	0.005074
204	0xa0cf	-0.00939
205	0x9a3c	-0.003044
206	0x945c	-0.001064
207	0xa0fe	-0.00975
208	0x2931	0.04056
209	0x207a	0.00874
210	0xa0cb	-0.00936
211	0x8cbf	-0.0002897
212	0xa573	-0.02129
213	0x9f22	-0.006966
214	0xa3f5	-0.01554
215	0xadf3	-0.09296
216	0x8dfe	-0.0003657
217	0x1ca6	0.00454
218	0xaac5	-0.0529
219	0x1f47	0.007107
220	0x2165	0.01054
221	0x9f3b	-0.00706
222	0x2157	0.01043
223	0x1ab7	0.003279
224	0x1ee6	0.006737
225	0x9f1d	-0.006947
226	0x89e7	-0.0001801
227	0x257d	0.02144
228	0x2090	0.00891
229	0xa8b9	-0.0369
230	0x2253	0.01235
231	0x2cc5	0.0745
232	0x9f3e	-0.007072
233	0xa1a0	-0.01099
234	0x20ad	0.00913
235	0x28bb	0.03696
236	0xa0bd	-0.009254
237	0x284b	0.03354
238	0xa845	-0.03336
239	0xa438	-0.01648
240	0xa3e9	-0.01545
241	0xa202	-0.011734
242	0x26d7	0.02672
243	0x2c4f	0.0673
244	0x9515	-0.001241
245	0x9f8c	-0.00737
246	0x23d0	0.01526
247	0x1add	0.003351
248	0xa5ea	-0.0231
249	0x2445	0.01668
250	0x205c	0.008514
251	0x2525	0.0201
252	0x2459	0.01698
253	0x9bff	-0.003904
254	0x9db2	-0.00556
255	0x280c	0.03162

arith.constant7 f2 [64]
0	0x3d5b	1.339
1	0x3b8c	0.9434
2	0xb9e9	-0.739
3	0x3e59	1.587
4	0xbd8f	-1.39
5	0x3105	0.1569
6	0xae8a	-0.1022
7	0x3885	0.565
8	0x3ebc	1.684
9	0xba1b	-0.763
10	0x3ec6	1.693
11	0xbaeb	-0.8647
12	0xb98c	-0.6934
13	0x3f0b	1.761
14	0x3c02	1.002
15	0xbf03	-1.753
16	0x3c91	1.142
17	0x3d59	1.337
18	0xb99a	-0.7
19	0xb438	-0.2637
20	0x4074	2.227
21	0x370a	0.44
22	0xba4f	-0.7886
23	0xb342	-0.2268
24	0x3ea1	1.657
25	0x396d	0.678
26	0xbcb6	-1.178
27	0x33a5	0.2389
28	0x380b	0.5054
29	0x3a4f	0.7886
30	0xba6b	-0.8022
31	0x3622	0.3833
32	0x3e14	1.52
33	0x39bf	0.7183
34	0xbb63	-0.9233
35	0x3b32	0.8994
36	0xbd68	-1.352
37	0xb106	-0.157
38	0x3a67	0.8003
39	0x3d05	1.255
40	0xbb69	-0.9263
41	0x386b	0.5522
42	0xbf11	-1.767
43	0x41b2	2.848
44	0x3d9a	1.4
45	0xc1af	-2.842
46	0xba58	-0.793
47	0x3b7e	0.9365
48	0xb74e	-0.4565
49	0x3d29	1.29
50	0x3fea	1.979
51	0xbcad	-1.169
52	0x301d	0.1285
53	0xbe21	-1.532
54	0x3e08	1.508
55	0xb8c5	-0.596
56	0x3d41	1.313
57	0x3f0f	1.765
58	0xb8af	-0.5854
59	0xb554	-0.333
60	0x3438	0.2637
61	0xb6d7	-0.4275
62	0xc0a4	-2.32
63	0x3915	0.6353

arith.constant8 f2 [64, 128]
0	0xaafb	-0.05453
1	0x28f6	0.03876
2	0xa8eb	-0.03842
3	0x28f8	0.03882
4	0x2f8c	0.1179
5	0x96c2	-0.00165
6	0x293f	0.041
7	0x248c	0.01776
8	0x1f33	0.00703
9	0xac73	-0.0695
10	0xad7a	-0.0856
11	0xad17	-0.0795
12	0xac43	-0.0666
13	0xa713	-0.02763
14	0x2c1f	0.0644
15	0x2dab	0.08856
16	0x27b0	0.03003
17	0xad7e	-0.0858
18	0xaa19	-0.04764
19	0xa7a5	-0.02986
20	0x1f96	0.00741
21	0xa0dd	-0.0095
22	0x2e8c	0.1023
23	0xa46a	-0.01724
24	0xaa08	-0.04712
25	0xa88f	-0.0356
26	0xaa5d	-0.0497
27	0x9dbe	-0.005608
28	0xaf31	-0.11237
29	0xa9bc	-0.0448
30	0x2bae	0.06
31	0x9e63	-0.006237
32	0xa3c4	-0.01517
33	0x2ca9	0.0728
34	0xa7d8	-0.03064
35	0x25c8	0.02258
36	0xa7c2	-0.0303
37	0x219b	0.01095
38	0x24dc	0.01898
39	0xade0	-0.0918
40	0x9331	-0.000878
41	0xa24f	-0.01232
42	0x2e3a	0.0973
43	0xa84e	-0.03363
44	0x2ce2	0.0763
45	0x9faa	-0.007484
46	0x9ff4	-0.007767
47	0x2b48	0.0569
48	0xa9af	-0.0444
49	0xa498	-0.01794
50	0x9a5b	-0.003103
51	0xb237	-0.1942
52	0xa483	-0.01762
53	0x9f24	-0.006973
54	0x2c8d	0.0711
55	0x2a22	0.0479
56	0xa584	-0.02155
57	0xab2b	-0.056
58	0xaf70	-0.1162
59	0xa8d2	-0.03766
60	0x2713	0.02763
61	0x28f4	0.0387
62	0x2859	0.03397
63	0xac0e	-0.06335
64	0x29b3	0.04453
65	0xa445	-0.01668
66	0xae9c	-0.1033
67	0x2df1	0.09283
68	0x2271	0.01258
69	0xacb8	-0.0737
70	0xac53	-0.06757
71	0xac37	-0.06586
72	0xa4ca	-0.0187
73	0x2be9	0.0618
74	0x2c61	0.0684
75	0xabdd	-0.06143
76	0xacab	-0.07294
77	0xab47	-0.05685
78	0xad84	-0.0862
79	0xa52a	-0.02017
80	0x3052	0.135
81	0x261f	0.02391
82	0x2949	0.0413
83	0xb0be	-0.1482
84	0x294d	0.0414
85	0x2c01	0.06256
86	0xabff	-0.06247
87	0xafb2	-0.12024
88	0x2c69	0.0689
89	0x3006	0.1257
90	0x201e	0.00804
91	0x2c54	0.0676
92	0xa40e	-0.01584
93	0xa8d2	-0.03766
94	0xac0d	-0.0633
95	0x2b13	0.05527
96	0x2ae8	0.05396
97	0x253b	0.02043
98	0xab91	-0.0591
99	0xad44	-0.0823
100	0xa8f1	-0.0386
101	0x231e	0.0139
102	0xaa91	-0.0513
103	0xaefd	-0.1092
104	0x2cb6	0.0736
105	0xa9a8	-0.0442
106	0x2102	0.00978
107	0xae02	-0.0939
108	0x2634	0.02423
109	0x2cde	0.07605
110	0xa5d0	-0.0227
111	0x2497	0.01793
112	0xa6c5	-0.02644
113	0x2d34	0.0813
114	0xa86c	-0.03455
115	0x2be3	0.0616
116	0x28a0	0.03613
117	0xb1cd	-0.1813
118	0xafea	-0.12366
119	0xa6da	-0.02676
120	0xa46d	-0.01729
121	0x2485	0.01765
122	0x20d6	0.009445
123	0xaa60	-0.0498
124	0xa6ad	-0.02608
125	0xa808	-0.0315
126	0xa8fb	-0.0389
127	0x2e04	0.094
128	0xab6f	-0.05807
129	0x9f4e	-0.007133
130	0x28b8	0.03687
131	0x2ad2	0.05328
132	0x1963	0.00263
133	0xacf4	-0.0774
134	0xa846	-0.0334
135	0xab84	-0.05872
136	0x240c	0.01581
137	0xa446	-0.0167
138	0x29e9	0.04617
139	0x2d04	0.07837
140	0xa646	-0.0245
141	0x21ed	0.01157
142	0xa24d	-0.01231
143	0x2db5	0.0892
144	0x2711	0.0276
145	0x29ea	0.0462
146	0x1e3e	0.006096
147	0xa590	-0.02173
148	0xaa23	-0.04794
149	0x238e	0.014755
150	0xad12	-0.0792
151	0xa8a3	-0.03622
152	0xae9e	-0.1034
153	0x2e53	0.0988
154	0xa261	-0.01246
155	0x1ae1	0.003359
156	0x2f24	0.1116
157	0x2248	0.01227
158	0xa95a	-0.0418
159	0xa92f	-0.0405
160	0x96c8	-0.001656
161	0xadef	-0.0927
162	0xa8f2	-0.03864
163	0x2115	0.009926
164	0xa7c4	-0.03033
165	0x95cd	-0.001416
166	0x24b8	0.01843
167	0xae21	-0.09576
168	0x2910	0.03955
169	0x9a57	-0.003096
170	0x2e24	0.09595
171	0x2904	0.03918
172	0x275b	0.02873
173	0x2310	0.013794
174	0xa89b	-0.03598
175	0xa301	-0.01368
176	0xa95c	-0.04187
177	0xac44	-0.06665
178	0x2a24	0.04797
179	0xb130	-0.1621
180	0xa6ed	-0.02705
181	0x22d5	0.01334
182	0xaa2c	-0.04822
183	0xa42c	-0.0163
184	0x1f97	0.007412
185	0xb113	-0.1586
186	0x2c60	0.06836
187	0xa81f	-0.0322
188	0xadc2	-0.08997
189	0x2ca3	0.07245
190	0x9cb4	-0.004593
191	0xac47	-0.06683
192	0x1c92	0.004463
193	0x22d2	0.01332
194	0xa77f	-0.02928
195	0x28cf	0.03757
196	0xa909	-0.03934
197	0x2167	0.01055
198	0xa8bb	-0.03696
199	0xacec	-0.0769
200	0xadb3	-0.08905
201	0xb04e	-0.1345
202	0x2bcc	0.0609
203	0xad40	-0.08203
204	0x2a37	0.04855
205	0x2a57	0.04953
206	0x2f50	0.11426
207	0xab41	-0.05667
208	0x2db5	0.0892
209	0xa43d	-0.01656
210	0x9e97	-0.006435
211	0x179e	0.00186
212	0xb051	-0.1349
213	0xa037	-0.00823
214	0x21f4	0.01163
215	0xb03c	-0.1323
216	0x25d3	0.02275
217	0x30aa	0.1458
218	0xac39	-0.066
219	0xa6a6	-0.02597
220	0xac47	-0.06683
221	0x2b7a	0.0584
222	0x9df0	-0.0058
223	0xa6dc	-0.0268
224	0xae07	-0.0942
225	0x3142	0.1643
226	0xabf6	-0.0622
227	0x2fca	0.1217
228	0x306e	0.1384
229	0xad6b	-0.08466
230	0x2d3f	0.082
231	0xb0c9	-0.1495
232	0x2abf	0.0527
233	0x2461	0.0171
234	0x934d	-0.000891
235	0xad3c	-0.0818
236	0x24f1	0.0193
237	0xa6cc	-0.02655
238	0x2cfa	0.07776
239	0xa21d	-0.01194
240	0xa70f	-0.02757
241	0x25f9	0.02333
242	0x9a54	-0.00309
243	0xad18	-0.0796
244	0x2e75	0.1009
245	0x2d5a	0.0836
246	0xa6ea	-0.02701
247	0x25db	0.02287
248	0xac39	-0.066
249	0x2dd8	0.0913
250	0x1817	0.001997
251	0xa91d	-0.03995
252	0x26bc	0.0263
253	0xa99b	-0.0438
254	0x1607	0.0014715
255	0x2457	0.01695

arith.constant9 f2 [32]
0	0x223d	0.012184
1	0xaa64	-0.04993
2	0xa4c6	-0.01865
3	0x2cfd	0.07794
4	0xac6d	-0.06915
5	0x2cae	0.0731
6	0xa768	-0.02893
7	0x95d7	-0.001426
8	0x2844	0.03333
9	0xa6ba	-0.02628
10	0xa553	-0.0208
11	0x2cac	0.073
12	0x2b5b	0.05746
13	0xa9c1	-0.04495
14	0xa8a3	-0.03622
15	0xae77	-0.101
16	0x2b42	0.0567
17	0x292f	0.0405
18	0x2c83	0.0705
19	0xa80e	-0.03168
20	0xa92c	-0.0404
21	0x2c52	0.0675
22	0x28a6	0.03632
23	0xabda	-0.06134
24	0xa4dc	-0.01898
25	0x275d	0.02876
26	0xac8c	-0.07104
27	0x2bfd	0.0624
28	0xa77e	-0.02927
29	0x29d3	0.0455
30	0xaa88	-0.05103
31	0x28aa	0.03644
