models/flood_probability_model.tflite (tflite, 94152 bytes, 9 tensors)

arith.constant f2 [256]
00000000: 55a1 1236 0a31 cba4 f235 df33 5db1 27b6
00000010: 4cb7 c831 b935 9ea6 38a7 c7b6 ec33 5737
00000020: 7734 76b4 b52e cd2d d033 d534 3e33 542d
00000030: 59b4 c630 de32 a634 dab5 872e 3bab 4332
00000040: 982f 91a9 7bb6 cd31 3836 7e2f 5bb3 1127
00000050: 9435 7c30 0bb6 4932 c52d 7930 8631 28b6
00000060: 6a31 21b4 2122 f834 5635 2a33 92b3 14b3
00000070: e02e c6aa 4737 dc31 eaad 66b6 5f32 842f
00000080: b4b2 a734 f6b7 622f 37ac 66a5 0332 0335
00000090: cf2c f92d a4ad a534 8d35 cf35 542e a435
000000a0: 6432 d136 d72c deb1 1c34 8ab7 8baf 8530
000000b0: 2832 e6ae 23af bab1 e832 3f31 2334 6630
000000c0: 3e33 2632 4331 8134 8530 c32c 2535 6a30
000000d0: d631 0bb2 732e 5736 321b 6034 1732 db33
000000e0: 1731 bc30 9c34 2cab ff2a 1831 6b30 7331
000000f0: 2433 0c36 ea2c cb2c 43b3 9334 0423 2634
00000100: 9e32 1037 7233 642e 6234 c430 b433 84b5
00000110: f828 a731 7e34 d32d 3236 df21 f433 ca2e
00000120: e8a9 94b1 2a20 16b0 f0ad 2035 2aa0 f223
00000130: e734 ebb1 6b34 f132 5b34 4835 2034 472d
00000140: b42e 2a35 c635 fc30 5099 94aa 8833 7bb5
00000150: 18ad a12f 1e2f 70b1 fd34 4bb2 b8a9 90a4
00000160: fc9b ee35 3d34 ce30 0c32 6235 9f34 1535
00000170: 5b2b a735 3638 4bac cab0 221d 4232 1635
00000180: e92d 882e 2da7 5533 9830 cd34 49af c632
00000190: dfa5 4430 81b6 dc30 362a 3033 b4b1 e42c
000001a0: 9633 08b4 4daf 0234 f4af 8531 60ab 4caf
000001b0: f8b4 2c33 f426 7ab0 a726 942c cd35 96aa
000001c0: 8834 7c34 3330 a928 3735 3896 cf31 2ba9
000001d0: c732 2831 ada9 6f32 0830 d5af aaa4 8734
000001e0: be27 5c31 87b0 6833 d3b0 03b8 762b 3d18
000001f0: 3e32 4235 89b4 cd36 60aa e12f d3a1 26ac
-0.010414 0.3794 0.1575 -0.01872 0.3716 0.246 -0.1676 -0.3845
-0.456 0.1807 0.3577 -0.02585 -0.0282 -0.4236 0.2476 0.4587
0.279 -0.2788 0.1048 0.09064 0.2441 0.302 0.2263 0.08325
-0.2717 0.1492 0.2146 0.2905 -0.3657 0.102 -0.0565 0.1957
0.11865 -0.0435 -0.405 0.1813 0.3887 0.11707 -0.2299 0.0276
0.3486 0.1401 -0.3777 0.1964 0.09015 0.1398 0.1726 -0.3848
0.1692 -0.258 0.01197 0.3105 0.3335 0.2239 -0.2366 -0.2212
0.1074 -0.05292 0.4548 0.1831 -0.0924 -0.4 0.1991 0.11743
-0.2095 0.2908 -0.4976 0.11536 -0.06586 -0.02109 0.1879 0.3132
0.07513 0.0933 -0.08813 0.2903 0.347 0.363 0.0989 0.3525
0.1997 0.426 0.0756 -0.1833 0.2568 -0.4712 -0.11786 0.1412
0.1924 -0.1078 -0.1115 -0.179 0.2158 0.164 0.2585 0.1375
0.2263 0.1921 0.1644 0.2815 0.1412 0.0744 0.3215 0.138
0.1824 -0.1888 0.10077 0.3962 0.003513 0.2734 0.1903 0.2455
0.159 0.148 0.288 -0.05603 0.05466 0.1592 0.1381 0.1703
0.2231 0.378 0.0768 0.0749 -0.2269 0.286 0.0137 0.2593
0.2068 0.4414 0.2327 0.09985 0.274 0.1489 0.2407 -0.3447
0.03882 0.1766 0.2808 0.091 0.3872 0.01147 0.2485 0.1061
-0.04614 -0.1743 0.00813 -0.1277 -0.0928 0.3203 -0.00813 0.01552
0.3064 -0.1849 0.2761 0.2169 0.2722 0.33 0.2578 0.08246
0.10474 0.3228 0.3608 0.1558 -0.002594 -0.0514 0.2354 -0.3425
-0.0796 0.1192 0.1112 -0.1699 0.3118 -0.1967 -0.04468 -0.01782
-0.003899 0.3706 0.265 0.1501 0.189 0.3364 0.2888 0.3176
0.05746 0.3533 0.5264 -0.0671 -0.1497 0.005013 0.1956 0.3179
0.09235 0.10205 -0.02803 0.2291 0.1436 0.3 -0.11383 0.2117
-0.02293 0.1333 -0.4065 0.1519 0.04852 0.2246 -0.1782 0.0764
0.237 -0.252 -0.1141 0.2505 -0.12427 0.1725 -0.05762 -0.114
-0.3105 0.2241 0.02716 -0.1399 0.02599 0.07153 0.3625 -0.05145
0.2832 0.2803 0.1312 0.0364 0.326 -0.001518 0.1815 -0.04037
0.2118 0.1611 -0.04434 0.201 0.126 -0.1224 -0.01822 0.283
0.03024 0.1675 -0.1415 0.2314 -0.1508 -0.5015 0.0583 0.00207
0.1951 0.3286 -0.2834 0.425 -0.0498 0.1231 -0.011375 -0.0648

arith.constant1 f2 [256, 6]
00000000: 43ae 972e 482e 00b1 8d2e 04b1 86b4 23b5
00000010: 1fb4 97b1 c635 d39f f1b3 7cb5 cda2 0934
00000020: a831 1120 23af 103a d832 bbad 4ca8 f298
00000030: b8b7 37b4 efb6 ddb1 e735 2b9d 0cb5 edb0
00000040: aaad c834 2931 691e d533 ac39 4136 0e1b
00000050: 65aa 7bb9 d637 d92d 1e32 fe2d a5b4 951e
00000060: 3935 e127 b735 d42e 2eb5 8498 7c27 e5b3
00000070: 63ac 89b2 d926 a424 d6b4 a935 4bac 5e34
00000080: 2137 bf19 6530 b9b4 6aa9 3fb0 b8a8 9ca9
00000090: 782d b7ab 662d c1b1 d728 8d2c d735 6834
000000a0: 4838 441b eeb4 beb9 5eb4 6c3a 19a5 c12f
000000b0: 1a34 f2a5 44b3 46b6 5ab8 0ab1 8435 a81a
000000c0: 46b4 a5aa 42ad 0534 7636 3f21 6232 7e35
000000d0: 6334 87b1 3caf c226 6d2c 72ab ebab 61b3
000000e0: 77a2 3e2c 3eae 88b4 ebaa abb4 c031 b529
000000f0: b332 3ec3 c3c0 a5a1 1e34 d68a c6b4 e6b4
00000100: 79b0 0db2 a731 d19e ccb3 73b5 67b4 bab2
00000110: 4e30 6126 b0af 5a1d f5a6 29b1 4032 bab0
00000120: 8d32 ecae eb2d 0831 b4b2 0a2d f1af ec30
00000130: 6e2a ad33 9229 2ca2 0cb4 b4ae 80b4 bab0
00000140: c32d c71d d0b5 4331 d7ad e432 9734 5418
00000150: 7a34 c6b5 2531 6031 c2b3 9d2c bcb0 80b0
00000160: 21b3 b89a cf2c 83bd 8b2e 05b0 6a27 bdb2
00000170: 6f2d f029 498e e0b1 68b6 3b9b 0f2f 2fbe
00000180: 9fb2 a1ac dcb0 c59a 2b34 d4bd c030 e636
00000190: 2230 28b0 9daa 9724 e235 c1b4 3a34 9d30
000001a0: 69b4 b42f 3218 85a4 42ad bab2 8e34 5bac
000001b0: 1db7 7439 d0b0 862e cd35 1d9a 41b1 e1b0
000001c0: 3cb0 dbb1 b2a3 4faa b134 61ad 4931 8a31
000001d0: 3cb0 db2e 09a9 50bf cdb5 a728 6ea3 a49f
000001e0: 61b4 b0b1 3fb6 0eb1 2233 29a1 51b2 3bb8
000001f0: 9ca8 9434 2aa6 9820 6934 e92a 6134 881b
-0.09784 0.10297 0.09814 -0.1562 0.10236 -0.1567 -0.2827 -0.321
-0.2576 -0.1747 0.3608 -0.00764 -0.2482 -0.3428 -0.01328 0.2522
0.1768 0.00794 -0.1115 0.758 0.2139 -0.08954 -0.03357 -0.002415
-0.4824 -0.2634 -0.4333 -0.1832 0.369 -0.005047 -0.3154 -0.1539
-0.0885 0.2988 0.1613 0.00626 0.2448 0.709 0.3909 0.003445
-0.04996 -0.685 0.4897 0.0914 0.1912 0.0936 -0.2903 0.006428
0.3264 0.03078 0.3572 0.1067 -0.3237 -0.002205 0.02924 -0.2467
-0.06854 -0.2042 0.02675 0.01813 -0.3022 0.3538 -0.0671 0.273
0.4456 0.002806 0.1373 -0.2952 -0.0423 -0.1327 -0.03687 -0.04382
0.08545 -0.06027 0.08435 -0.1798 0.0378 0.0711 0.365 0.2754
0.535 0.003548 -0.308 -0.718 -0.273 0.8027 -0.01991 0.12115
0.2563 -0.02322 -0.227 -0.392 -0.544 -0.1575 0.3447 0.00325
-0.267 -0.0519 -0.08215 0.2512 0.4038 0.01025 0.1995 0.3433
0.2742 -0.1727 -0.11304 0.0264 0.06915 -0.05817 -0.06186 -0.2306
-0.01263 0.0663 -0.09753 -0.2832 -0.05405 -0.2917 0.1797 0.0446
0.2094 -3.621 -2.38 -0.011024 0.2573 -0.0002086 -0.2983 -0.3062
-0.1398 -0.1891 0.1766 -0.006657 -0.2437 -0.3406 -0.2751 -0.2102
0.1345 0.02492 -0.1201 0.005226 -0.02718 -0.1613 0.1953 -0.1477
0.2047 -0.10815 0.09247 0.1572 -0.2095 0.07874 -0.1241 0.1538
0.05023 0.2399 0.04352 -0.012054 -0.253 -0.10474 -0.2812 -0.1477
0.09 0.005642 -0.3633 0.1644 -0.09125 0.2153 0.2869 0.002113
0.2798 -0.3608 0.1608 0.168 -0.2424 0.0721 -0.148 -0.1406
-0.2228 -0.00328 0.07513 -1.378 0.10223 -0.1256 0.02896 -0.2106
0.0849 0.0464 -0.0003836 -0.1836 -0.4004 -0.00353 0.1103 -1.546
-0.2069 -0.0723 -0.1519 -0.003305 0.2605 -1.457 0.1484 0.4312
0.1292 -0.1299 -0.05167 0.01793 0.3677 -0.297 0.2642 0.1442
-0.2756 0.12036 0.002048 -0.01765 -0.08215 -0.2102 0.2847 -0.06805
-0.4446 0.6816 -0.1504 0.1019 0.3625 -0.002985 -0.1642 -0.1525
-0.1323 -0.183 -0.01503 -0.0493 0.2932 -0.08405 0.1652 0.1731
-0.1323 0.1071 -0.03934 -1.828 -0.3625 0.03635 -0.01451 -0.00746
-0.2737 -0.1777 -0.3904 -0.158 0.2229 -0.01008 -0.1974 -0.529
-0.036 0.2861 -0.02408 0.00897 0.2756 0.054 0.2737 0.003677

arith.constant2 f2 [32, 64]
00000000: 2ea8 aa2f 4caf 81b1 3cb2 902e 6ca7 f7af
00000010: 9021 d2b3 3cb2 c42f 8db0 8fb2 33b4 feb1
00000020: e2b0 a62a b330 8eab b5b4 64aa 75b4 5126
00000030: 67a9 e9b2 93b3 1dac bd2b 062c 0a2a 69b0
00000040: 552a 1e24 dcae c932 74af 74a9 e4a6 05b5
00000050: df31 13b0 222e df27 88ad ff2e 6627 8da8
00000060: 46b3 30b1 3faa 49b3 7db4 0232 23b1 2faf
00000070: 0b30 29b2 79a9 2b30 762c 44b3 4da3 92a9
00000080: 9eb2 3630 3d2e 3b28 d12d 50ac 12af 36b1
00000090: 73b4 a0ac 1ea5 cca4 e130 712e e3b0 0c33
000000a0: 722e 8f30 06ab d1a3 82a8 4caf c4b4 07aa
000000b0: b934 9b34 cab1 0133 57ac aab0 0133 deb2
000000c0: 98ae d132 60ad 5231 01b5 b5b2 7732 1cb3
000000d0: c930 feb4 f9b1 81ab d7b0 9e2e e4b2 dda7
000000e0: 392b 4cac 7c2d 50ac 3032 ea32 1aad 88af
000000f0: 891a 61b2 0fb4 4227 34ad 7630 38b4 74ab
00000100: 38b4 c12f 11b4 da2f aaaf 3729 7bac 3e27
00000110: 9fb4 15a0 a532 5c2a 0f2e bcb0 fe2c 9fa0
00000120: 7bb0 eaab f72e 8334 bfb3 16b5 bda9 30a9
00000130: 5b2c a92a 179d e631 972c 2d30 a527 8cb0
00000140: 2833 b2ae ed95 ee31 b4ad 27b2 002f 9bb5
00000150: 81b4 f3b1 7faf bb24 dbac e4af c32f 7332
00000160: b4af 0832 fc2c 3dad 2130 2a34 7a30 33aa
00000170: 06a2 7832 5229 a12f 08af e8b3 a9b1 6bb0
00000180: 9d2f 25ae 23ae 3232 c6ae 52a8 a125 4dab
00000190: 40b0 12b4 87ae 4f31 b0ac 9c33 709d 5728
000001a0: ffa9 96a9 892e 20b3 0e1c 9a2e 93b3 bc31
000001b0: 7e30 b4b1 4bb4 4d31 9c2c c12c 93b4 94b2
000001c0: 4cac e09f 9cb0 4b2f bbb3 7cab 6030 7bb2
000001d0: 1189 c6a9 dc31 dc9f 5930 5d2d 03a4 c5b5
000001e0: 072f 8b2a 46af 3c2f 80ad e4b2 79b3 632c
000001f0: 3eb4 f2a6 b4af 532e 43af a0ad 8db2 9531
-0.03265 0.11975 -0.114 -0.172 -0.1948 0.10254 -0.02899 -0.12445
0.010864 -0.2444 -0.1948 0.12134 -0.1422 -0.205 -0.2625 -0.1873
-0.1526 0.05194 0.1469 -0.05902 -0.2942 -0.04993 -0.2786 0.02467
-0.0422 -0.216 -0.2367 -0.0643 0.06046 0.06287 0.04718 -0.1378
0.04947 0.01608 -0.1072 0.212 -0.11646 -0.0426 -0.02692 -0.3137
0.1835 -0.1273 0.0958 0.03075 -0.0864 0.1093 0.0289 -0.03555
-0.2273 -0.1621 -0.0488 -0.2277 -0.2805 0.1877 -0.1605 -0.11224
0.1263 -0.1925 -0.04276 0.1302 0.0697 -0.227 -0.01426 -0.04352
-0.2068 0.1316 0.0975 0.03305 0.0909 -0.0674 -0.1105 -0.1628
-0.278 -0.07227 -0.01999 -0.01874 0.1525 0.10065 -0.1527 0.2202
0.1007 0.1425 -0.05487 -0.01527 -0.03522 -0.114 -0.2979 -0.0471
0.2952 0.2878 -0.1809 0.2189 -0.0678 -0.1458 0.2189 -0.2146
-0.103 0.213 -0.084 0.1663 -0.3127 -0.2096 0.202 -0.2222
0.1495 -0.312 -0.1866 -0.05862 -0.1512 0.1034 -0.2153 -0.03072
0.05643 -0.06714 0.0857 -0.0674 0.1934 0.2161 -0.0797 -0.1177
0.003191 -0.1993 -0.2537 0.02835 -0.0813 0.1394 -0.2637 -0.05823
-0.2637 0.12115 -0.2542 0.1227 -0.11975 0.04074 -0.07 0.02829
-0.2888 -0.00797 0.2076 0.04968 0.09467 -0.148 0.078 -0.009026
-0.14 -0.06183 0.1088 0.282 -0.2421 -0.3179 -0.04483 -0.04053
0.06805 0.05203 -0.00497 0.1843 0.0717 0.1305 0.02986 -0.1421
0.2236 -0.1046 -0.001447 0.1853 -0.0891 -0.1923 0.1094 -0.3503
-0.2815 -0.1859 -0.1171 0.01848 -0.07587 -0.1233 0.1213 0.2015
-0.12036 0.1885 0.0779 -0.08185 0.129 0.2603 0.1399 -0.04843
-0.011765 0.2021 0.04156 0.1192 -0.10986 -0.2471 -0.1769 -0.1381
0.11896 -0.096 -0.0959 0.1936 -0.10583 -0.03375 0.02199 -0.05704
-0.1328 -0.2544 -0.102 0.1659 -0.07324 0.2378 -0.00531 0.0339
-0.04684 -0.04364 0.1021 -0.2227 0.00396 0.10315 -0.2367 0.1792
0.1404 -0.1782 -0.2683 0.1656 0.072 0.0743 -0.286 -0.2056
-0.06714 -0.00769 -0.144 0.11395 -0.2416 -0.05847 0.1367 -0.2025
-0.0001546 -0.0451 0.1831 -0.007675 0.1359 0.0838 -0.01567 -0.3606
0.1098 0.05112 -0.11365 0.11304 -0.08594 -0.2153 -0.2335 0.06854
-0.2651 -0.02713 -0.12036 0.0988 -0.11346 -0.0879 -0.2047 0.1744

arith.constant3 f2 [1, 32]
00000000: a58f 2da8 2a23 6e9c 35ab 7dac 4aa6 baa1
00000010: 93a8 d332 319d 0a2d 319e 072c 7a2e 811d
00000020: c9b0 f9b0 e429 0a9a 0aaf 22a8 6c2b 192f
00000030: 789c 3631 c2ab 8eac 4baa b29c af2e f728
-0.0004666 -0.03262 0.01399 -0.004326 -0.0563 -0.0701 -0.02457 -0.011185
-0.03574 0.2133 -0.00507 0.07874 -0.006046 0.0629 0.1012 0.005375
-0.1495 -0.1554 0.04602 -0.002949 -0.11 -0.0323 0.05798 0.1109
-0.004364 0.1628 -0.0606 -0.07117 -0.04916 -0.004585 0.10443 0.0388

arith.constant5 f2 [128]
00000000: dec1 e9c2 5c44 9b46 15c4 4844 a23d 03c1
00000010: 4bc0 ea49 12c9 8fbd 0640 76c5 9346 d83c
00000020: 74c7 12b0 a6ca 91c8 66c0 8342 5dbb bc3f
00000030: c2c4 43c9 e3c0 5fbd 7ec8 cab9 7cc3 e046
00000040: 88be 1e40 ed43 9cc7 c4b9 c4c3 8549 a83e
00000050: 4f45 13c1 63ac 5c3e 60b4 7848 674b aac5
00000060: 21c7 8040 de43 31b9 c8c0 5147 2ab9 bbbd
00000070: cdba c247 21b3 533f f3c0 7f48 28c8 533e
00000080: 39c7 19c5 33c5 22b6 6bc1 a344 0c44 bec7
00000090: 1cc8 18c3 5749 7e44 1fc2 d7c8 4348 6cc4
000000a0: 3fc8 2840 47c8 b6ba 42c8 99bc d3c0 cec4
000000b0: 13c9 43bc d3c4 7844 cf41 c535 f3c1 4345
000000c0: a2c6 00c2 3bb5 dec7 9248 04c2 7344 b640
000000d0: c8c8 3348 a3c5 ff46 24c8 e843 98c6 db45
000000e0: e73a 4dbe 1d36 092d c735 d53f 8bcb 6cc0
000000f0: 80c9 b63f 24c6 6c44 afc6 09c8 8bc9 c7c7
-2.934 -3.455 4.36 6.605 -4.082 4.28 1.408 -2.506
-2.146 11.83 -10.14 -1.39 2.012 -5.46 6.574 1.211
-7.453 -0.1272 -13.3 -9.13 -2.2 3.256 -0.9204 1.934
-4.758 -10.52 -2.443 -1.343 -8.984 -0.7236 -3.742 6.875
-1.633 2.059 3.963 -7.61 -0.7207 -3.883 11.04 1.664
5.31 -2.537 -0.06854 1.59 -0.2734 8.94 14.805 -5.664
-7.13 2.25 3.934 -0.649 -2.39 7.316 -0.6455 -1.433
-0.85 7.758 -0.2228 1.831 -2.475 8.99 -8.31 1.581
-7.223 -5.098 -5.2 -0.3833 -2.709 4.637 4.047 -7.742
-8.22 -3.547 10.68 4.492 -3.06 -9.68 8.52 -4.42
-8.49 2.078 -8.555 -0.839 -8.516 -1.149 -2.412 -4.805
-10.15 -1.065 -4.824 4.47 2.904 0.3606 -2.975 5.26
-6.633 -3.0 -0.327 -7.867 9.14 -3.008 4.45 2.355
-9.56 8.4 -5.637 6.996 -8.28 3.953 -6.594 5.855
0.863 -1.575 0.382 0.0787 0.361 1.958 -15.086 -2.21
-11.0 1.928 -6.14 4.42 -6.684 -8.07 -11.086 -7.777

arith.constant6 f2 [128, 256]
00000000: 079d 7211 7a13 d19f 580d 929d 52a7 541e
00000010: 8214 051e 3499 d51c 9c82 61a8 96a4 cf1c
00000020: 499a 7020 d896 e71b 0730 3498 451e 5420
00000030: 9817 4619 8700 041d 241d 889c fe1e f321
00000040: 539f 4324 939b 481d 62a3 9718 d49b f3a0
00000050: 6620 0f16 9220 7c9b c51a 441d 7b1f fca1
00000060: d21f e414 4a9c a612 1313 9d15 d324 da9d
00000070: b918 f315 7e9c 429d d71f 7c9e a120 519b
00000080: b920 879b 9e23 bc12 3521 2e1e 2316 9715
00000090: 9319 0620 3b97 e79b 8506 831a 1381 631d
000000a0: e501 0893 db14 faa0 b41e 4418 db22 d89e
000000b0: 991f dc21 121e c422 6126 1d9a 0024 fc24
000000c0: a896 0324 c420 4e9c ad0d 3026 b320 fca0
000000d0: 401c bc1a 3e1a 0029 89a1 5712 2119 0d9a
000000e0: 6096 821d bf18 5323 539c 491a f598 741a
000000f0: ed20 7b17 15a1 fc9d 77a5 1519 f61f 2e1d
00000100: 2e9b 6a0a 491b 0e97 bc90 3220 bf9c f721
00000110: 659f c120 521d b01c b132 c69a 1a1d 1a83
00000120: 0d1f 61a5 07a4 411e ed19 979d 8a97 0d22
00000130: 9f17 4597 d620 830c 2f9b 471a cb19 9911
00000140: cba0 6a97 ec1d 3215 701a 3e96 c997 9c21
00000150: 3f9a 2d13 1015 e611 0920 e79d f3a1 2996
00000160: 1d1c 431c 4891 dd99 6e9a 5712 d11c 0920
00000170: 9591 7519 4f12 a514 ea10 b61d 589a 4921
00000180: 9010 3720 5696 d21e b6a0 829c 381d 5b24
00000190: eb1d a41e 5a95 eb1d 839a f51e 0b22 2424
000001a0: 139a ef26 4924 069c 5e23 a997 8820 869d
000001b0: b797 d495 2087 8d1f c01f dc1e 9491 0b28
000001c0: 9b9c bd13 9604 3c98 5f98 6a1b 4c1d 38a2
000001d0: 2298 2f20 2fa2 991d 448a f016 061d 4521
000001e0: 67a6 941e aa95 ba2a 0ca4 4193 0e1f aa1e
000001f0: 160f 339e 7a9b 119c db15 0796 7298 5893
-0.00491 0.0006647 0.0009127 -0.007633 0.0003262 -0.00544 -0.0286 0.00618
0.001101 0.00588 -0.00254 0.00472 -3.98e-05 -0.0342 -0.01791 0.004696
-0.003069 0.00867 -0.001671 0.003859 0.1259 -0.002052 0.006123 0.00845
0.001854 0.002575 8.05e-06 0.004898 0.00502 -0.004425 0.00683 0.01162
-0.007153 0.01665 -0.003698 0.005157 -0.01442 0.002241 -0.003822 -0.00967
0.00859 0.001479 0.00893 -0.003654 0.003305 0.005142 0.007305 -0.01169
0.007637 0.001194 -0.00419 0.0008116 0.0008636 0.00137 0.01884 -0.005714
0.002306 0.001452 -0.004387 -0.005135 0.007656 -0.006332 0.00904 -0.003572
0.009224 -0.003675 0.01488 0.000822 0.01017 0.006035 0.001498 0.001365
0.002722 0.00786 -0.001765 -0.003859 9.95e-05 0.00318 -1.64e-05 0.00526
2.89e-05 -0.0008583 0.001185 -0.00972 0.006546 0.002083 0.01339 -0.006683
0.00742 0.011444 0.005928 0.013214 0.02492 -0.002985 0.01563 0.01947
-0.001625 0.01567 0.00931 -0.004204 0.0003464 0.02417 0.00918 -0.009735
0.00415 0.003288 0.003048 0.03906 -0.01081 0.000774 0.002504 -0.002954
-0.001556 0.00538 0.002317 0.014305 -0.004223 0.003069 -0.00242 0.00315
0.00962 0.001826 -0.009926 -0.005844 -0.02135 0.002481 0.007774 0.00506
-0.003506 0.0001957 0.003557 -0.001722 -0.000578 0.008194 -0.004635 0.01165
-0.00722 0.009285 0.005196 0.004578 0.2091 -0.003307 0.004982 -4.73e-05
0.006886 -0.02101 -0.01573 0.006107 0.002893 -0.00546 -0.001841 0.01182
0.001861 -0.001775 0.009445 0.0002754 -0.003508 0.003065 0.002829 0.0006833
-0.00936 -0.00181 0.005783 0.001268 0.003143 -0.001524 -0.001901 0.010956
-0.00305 0.000876 0.001236 0.00072 0.00788 -0.005764 -0.01162 -0.001504
0.004017 0.00416 -0.0006447 -0.002863 -0.00314 0.000774 0.004704 0.00788
-0.0006814 0.002665 0.00077 0.001134 0.0006 0.005577 -0.003098 0.01032
0.000557 0.00823 -0.001547 0.00666 -0.0092 -0.004402 0.005096 0.01701
0.00578 0.006485 -0.001307 0.00578 -0.00318 0.006794 0.0118 0.01617
-0.002966 0.02708 0.01674 -0.00393 0.01439 -0.00187 0.00885 -0.005394
-0.0018835 -0.001423 -0.0001087 0.007374 0.00757 0.0067 -0.000681 0.0316
-0.004498 0.0009446 7e-05 -0.002068 -0.002134 0.00362 0.005173 -0.012146
-0.002018 0.00817 -0.01208 0.005466 -0.0001912 0.001694 0.004906 0.01029
-0.02501 0.006424 -0.001383 0.05255 -0.01581 -0.0008855 0.00689 0.006508
0.0004325 -0.006054 -0.00365 -0.00397 0.00143 -0.0014715 -0.00217 -0.0008965

arith.constant7 f2 [64]
00000000: 0dc0 edbf 08be d6be d8c2 c1c1 03ba 41be
00000010: a031 b9bc 64bc b4c0 34bd 1ebf 08c0 2dc0
00000020: ddbd 7fc0 35c0 09bd 89bb 2aa9 97bf 1bc0
00000030: 28be 2ebe 5ab9 3dc0 3abe 4fba 31bc 8ebd
00000040: 35bc 81bf cbbc 93bd b3bc 62bf 86bd 3c3a
00000050: 45c0 5dc1 84bf 00be cdbb d6bd 9cbd 3bc0
00000060: 89bd e0bd f5bd ffbc 26c2 bbbd ebbe cfbc
00000070: c6bd a2bf 3aba 9bbf f6c0 69be 6fc1 66c0
-2.025 -1.981 -1.508 -1.709 -3.422 -2.877 -0.7515 -1.563
0.1758 -1.181 -1.098 -2.352 -1.301 -1.779 -2.016 -2.088
-1.466 -2.248 -2.104 -1.259 -0.942 -0.04034 -1.897 -2.053
-1.539 -1.545 -0.669 -2.12 -1.557 -0.7886 -1.048 -1.389
-1.052 -1.876 -1.198 -1.394 -1.175 -1.846 -1.381 0.7793
-2.135 -2.682 -1.879 -1.5 -0.975 -1.459 -1.402 -2.115
-1.384 -1.469 -1.489 -1.249 -3.074 -1.433 -1.7295 -1.202
-1.443 -1.908 -0.7783 -1.901 -2.48 -1.603 -2.717 -2.2

arith.constant8 f2 [64, 128]
00000000: a515 8c99 ea25 7da3 f789 9420 641b 9b9a
00000010: 5ba1 b729 f2aa ce26 202a cc1c ffa4 a630
00000020: 8328 31a2 321e ada4 54a3 d71e 379f aea0
00000030: c318 df1c 18a1 4112 139a 0e19 cd23 6223
00000040: 919c 35a0 d5a5 cc94 e81b 2eaa f128 5a94
00000050: ae29 ada1 a6c3 34a5 e9a1 9124 f225 421f
00000060: d71a df24 fe19 01a4 5223 6625 ea25 75a3
00000070: ba23 bf22 6925 8793 2f19 1d27 4aa5 68a3
00000080: ad99 33a1 2ba2 399c d18b 331e dda1 0d25
00000090: f79b 2445 8923 5122 b713 a31c 43a7 e01e
000000a0: b1a6 bbac 7528 de22 8ca0 8498 e7a3 8aa7
000000b0: 25a8 7e23 3b98 5ca4 f5a5 6a9a 669c 9a22
000000c0: a59f a2a1 5426 5620 34a0 87a0 1323 f7a4
000000d0: ea20 a3a4 e318 7721 1620 372b 301e d623
000000e0: 549b a79e fa1e d78c cd28 571d a39e b70e
000000f0: 14a1 0818 d4a4 4a2a 31a4 5a20 089b bc1f
00000100: 6590 aa9a 5a1e 828f 118b 871f 54a2 f324
00000110: 9f1f ac26 1e11 76a6 41a9 6b20 1c26 152f
00000120: 53ad 85a5 39a1 d6a1 4c1d 38a5 54a6 1aa4
00000130: 6f0f 1123 b823 b1a2 c29d 0798 28a4 cd23
00000140: e422 7f20 0826 f222 2ea5 04a1 0c28 4e20
00000150: a52d 20ac b537 669d 630d d32a 4629 a29f
00000160: 5ea2 831c 2c9f a31e 771f 3821 f525 b8a0
00000170: e81e ae20 9a82 f322 ad21 019c 411c 61a2
00000180: 0da3 dd20 ea9c 5326 e1a2 612c 1f25 73a8
00000190: 028d cc44 8ba4 d7a1 2c17 1827 a1a6 27a5
000001a0: f81b 9932 7fa8 2e14 9aa2 a49c b621 c59b
000001b0: dca4 4025 3f9e 30a6 f292 1a1e aba0 4ea2
000001c0: a617 0c9f 8520 0325 9013 682a aea1 73a6
000001d0: 3da1 86a7 cc1a b0a1 521c 1f92 be1f a01a
000001e0: 3ea4 7e9c fe9e 4020 f3b4 a39d 03a6 8f1f
000001f0: 901f d729 e2a6 8d22 6f23 1c25 2f9f e31e
0.001378 -0.002708 0.0231 -0.014626 -0.000182 0.00894 0.003609 -0.003225
-0.01046 0.04465 -0.05426 0.02658 0.04785 0.004684 -0.01952 0.1453
0.03525 -0.01209 0.00605 -0.01826 -0.01431 0.00668 -0.007046 -0.00914
0.002325 0.004757 -0.00995 0.0007634 -0.002966 0.002468 0.015236 0.01442
-0.00446 -0.00822 -0.02278 -0.001171 0.00386 -0.04828 0.0386 -0.001062
0.04437 -0.011086 -3.824 -0.02032 -0.01154 0.01784 0.02322 0.007088
0.00334 0.01903 0.002926 -0.01564 0.0143 0.02109 0.0231 -0.014565
0.01509 0.013176 0.02113 -0.000919 0.002531 0.02779 -0.02066 -0.014465
-0.002771 -0.010155 -0.01205 -0.004124 -0.0002385 0.006054 -0.01145 0.01973
-0.00389 5.14 0.01472 0.01234 0.0009418 0.004528 -0.02837 0.006714
-0.02614 -0.0739 0.03482 0.01341 -0.00888 -0.002205 -0.015434 -0.02945
-0.03238 0.01463 -0.002066 -0.01703 -0.02327 -0.003132 -0.004295 0.01289
-0.007465 -0.011 0.02472 0.00847 -0.00821 -0.00884 0.01382 -0.0194
0.0096 -0.01811 0.002386 0.01067 0.00798 0.05637 0.006042 0.015305
-0.003578 -0.006496 0.006813 -0.0002954 0.0375 0.005215 -0.00648 0.0004098
-0.00992 0.001968 -0.01886 0.04913 -0.01637 0.0085 -0.003433 0.007553
-0.0005364 -0.003254 0.006203 -0.0004582 -0.0002156 0.00735 -0.01236 0.01933
0.007442 0.02606 0.0006247 -0.02524 -0.04105 0.00863 0.02386 0.11066
-0.0832 -0.02156 -0.0102 -0.0114 0.005173 -0.02039 -0.02472 -0.01602
0.0004537 0.0138 0.015076 -0.01307 -0.005623 -0.001966 -0.01624 0.015236
0.01346 0.00878 0.02356 0.013565 -0.02023 -0.009796 0.03162 0.00841
0.0882 -0.06445 0.4817 -0.005272 0.0003288 0.0533 0.0412 -0.007454
-0.012436 0.004406 -0.007004 0.00648 0.00729 0.01019 0.02327 -0.00922
0.006744 0.00914 -3.97e-05 0.01357 0.011086 -0.00391 0.004154 -0.01246
-0.01377 0.0095 -0.0048 0.0247 -0.013435 0.0684 0.02 -0.03476
-0.0003057 4.797 -0.01775 -0.011406 0.001751 0.02771 -0.0259 -0.02013
0.003891 0.2062 -0.03513 0.00102 -0.01289 -0.00453 0.011154 -0.003794
-0.01898 0.02051 -0.0061 -0.02417 -0.000848 0.00596 -0.00912 -0.012314
0.001867 -0.00688 0.00883 0.01958 0.000923 0.05005 -0.01109 -0.02519
-0.01023 -0.02939 0.003319 -0.01111 0.00422 -0.000747 0.00756 0.003235
-0.01657 -0.004387 -0.00683 0.0083 -0.3093 -0.005505 -0.02348 0.00738
0.007385 0.04562 -0.02689 0.012794 0.01452 0.01996 -0.007015 0.006725

arith.constant9 f2 [32]
00000000: 6aa4 81a9 032c 3eb1 20b3 69b2 b0b2 42b4
00000010: 43b2 beb2 d7b1 0e31 d2b6 0533 e934 41a1
00000020: feb2 5eb5 36b3 b227 85b1 17b5 2e2d 8834
00000030: c6a8 0d33 09b4 8cb2 5ab4 cd29 1734 11ac
-0.01724 -0.043 0.0627 -0.1638 -0.2227 -0.2003 -0.209 -0.266
-0.1957 -0.2107 -0.1825 0.158 -0.4263 0.2194 0.307 -0.01026
-0.2185 -0.3354 -0.2253 0.03006 -0.1725 -0.318 0.08093 0.2832
-0.0373 0.2203 -0.2522 -0.2046 -0.272 0.04532 0.2556 -0.06354
